module  {
  func @main(%arg0: tensor<1x784x!FHE.eint<7>>) -> tensor<1x10x!FHE.eint<7>> {
    %cst = arith.constant dense<"…"> : tensor<192x10xi8>
    %cst_0 = arith.constant dense<"…"> : tensor<192x192xi8>
    %cst_1 = arith.constant dense<"…"> : tensor<192x192xi8>
    %cst_2 = arith.constant dense<"…"> : tensor<784x192xi8>
    %c-4_i8 = arith.constant -4 : i8
    %c64_i8 = arith.constant 64 : i8
    %c64_i8_3 = arith.constant 64 : i8
    %c64_i8_4 = arith.constant 64 : i8
    %c64_i8_5 = arith.constant 64 : i8
    %hack_0_c-4_i8 = tensor.from_elements %c-4_i8 : tensor<1xi8>
    %0 = "FHELinalg.add_eint_int"(%arg0, %hack_0_c-4_i8) : (tensor<1x784x!FHE.eint<7>>, tensor<1xi8>) -> tensor<1x784x!FHE.eint<7>>
    %hack_1_c64_i8_5 = tensor.from_elements %c64_i8_5 : tensor<1xi8>
    %1 = "FHELinalg.add_eint_int"(%0, %hack_1_c64_i8_5) : (tensor<1x784x!FHE.eint<7>>, tensor<1xi8>) -> tensor<1x784x!FHE.eint<7>>
    %cst_6 = arith.constant dense<"…"> : tensor<128xi64>
    %2 = "FHELinalg.apply_lookup_table"(%1, %cst_6) : (tensor<1x784x!FHE.eint<7>>, tensor<128xi64>) -> tensor<1x784x!FHE.eint<7>>
    %3 = "FHELinalg.matmul_eint_int"(%2, %cst_2) : (tensor<1x784x!FHE.eint<7>>, tensor<784x192xi8>) -> tensor<1x192x!FHE.eint<7>>
    %cst_7 = arith.constant dense<"…"> : tensor<43x128xi64>
    %cst_8 = arith.constant dense<"…"> : tensor<1x192xindex>
    %4 = "FHELinalg.apply_mapped_lookup_table"(%3, %cst_7, %cst_8) : (tensor<1x192x!FHE.eint<7>>, tensor<43x128xi64>, tensor<1x192xindex>) -> tensor<1x192x!FHE.eint<7>>
    %5 = "FHELinalg.matmul_eint_int"(%4, %cst_1) : (tensor<1x192x!FHE.eint<7>>, tensor<192x192xi8>) -> tensor<1x192x!FHE.eint<7>>
    %hack_6_c64_i8_4 = tensor.from_elements %c64_i8_4 : tensor<1xi8>
    %6 = "FHELinalg.add_eint_int"(%5, %hack_6_c64_i8_4) : (tensor<1x192x!FHE.eint<7>>, tensor<1xi8>) -> tensor<1x192x!FHE.eint<7>>
    %cst_9 = arith.constant dense<"…"> : tensor<58x128xi64>
    %cst_10 = arith.constant dense<"…"> : tensor<1x192xindex>
    %7 = "FHELinalg.apply_mapped_lookup_table"(%6, %cst_9, %cst_10) : (tensor<1x192x!FHE.eint<7>>, tensor<58x128xi64>, tensor<1x192xindex>) -> tensor<1x192x!FHE.eint<7>>
    %8 = "FHELinalg.matmul_eint_int"(%7, %cst_0) : (tensor<1x192x!FHE.eint<7>>, tensor<192x192xi8>) -> tensor<1x192x!FHE.eint<7>>
    %hack_9_c64_i8_3 = tensor.from_elements %c64_i8_3 : tensor<1xi8>
    %9 = "FHELinalg.add_eint_int"(%8, %hack_9_c64_i8_3) : (tensor<1x192x!FHE.eint<7>>, tensor<1xi8>) -> tensor<1x192x!FHE.eint<7>>
    %cst_11 = arith.constant dense<"…"> : tensor<44x128xi64>
    %cst_12 = arith.constant dense<"…"> : tensor<1x192xindex>
    %10 = "FHELinalg.apply_mapped_lookup_table"(%9, %cst_11, %cst_12) : (tensor<1x192x!FHE.eint<7>>, tensor<44x128xi64>, tensor<1x192xindex>) -> tensor<1x192x!FHE.eint<7>>
    %11 = "FHELinalg.matmul_eint_int"(%10, %cst) : (tensor<1x192x!FHE.eint<7>>, tensor<192x10xi8>) -> tensor<1x10x!FHE.eint<7>>
    %hack_12_c64_i8 = tensor.from_elements %c64_i8 : tensor<1xi8>
    %12 = "FHELinalg.add_eint_int"(%11, %hack_12_c64_i8) : (tensor<1x10x!FHE.eint<7>>, tensor<1xi8>) -> tensor<1x10x!FHE.eint<7>>
    %cst_13 = arith.constant dense<"…"> : tensor<128xi64>
    %13 = "FHELinalg.apply_lookup_table"(%12, %cst_13) : (tensor<1x10x!FHE.eint<7>>, tensor<128xi64>) -> tensor<1x10x!FHE.eint<7>>
    return %13 : tensor<1x10x!FHE.eint<7>>
  }
}
